…
WARNING:tensorflow:Layer lstm_1 will not use cuDNN kernels since it doesn't meet the criteria. It will use a generic GPU kernel as fallback when running on GPU.
WARNING:tensorflow:Layer lstm_2 will not use cuDNN kernels since it doesn't meet the criteria. It will use a generic GPU kernel as fallback when running on GPU.
WARNING:tensorflow:Layer lstm_3 will not use cuDNN kernels since it doesn't meet the criteria. It will use a generic GPU kernel as fallback when running on GPU.
Model: "sequential"
_________________________________________________________________
 Layer (type)                Output Shape              Param #
=================================================================
 lstm (LSTM)                 (None, 10, 50)            10400

 dropout (Dropout)           (None, 10, 50)            0

 lstm_1 (LSTM)               (None, 10, 60)            26640

 dropout_1 (Dropout)         (None, 10, 60)            0

 lstm_2 (LSTM)               (None, 10, 80)            45120

 dropout_2 (Dropout)         (None, 10, 80)            0

 lstm_3 (LSTM)               (None, 120)               96480

 dropout_3 (Dropout)         (None, 120)               0

 dense (Dense)               (None, 1)                 121

=================================================================
Total params: 178761 (698.29 KB)
Trainable params: 178761 (698.29 KB)
Non-trainable params: 0 (0.00 Byte)
_________________________________________________________________
Fitting to AMZN
[34m[1mwandb[0m: [33mWARNING[0m WandbCallback is deprecated and will be removed in a future release. Please use the WandbMetricsLogger, WandbModelCheckpoint, and WandbEvalCallback callbacks instead. See https://docs.wandb.ai/guides/integrations/keras for more information.
…
